models/neural_network_model.onnx (onnx, 10440 bytes, 5 tensors)

fc_1_MatMul_W f4 [4, 64]
00000000: 14a3 26be 99f1 ecbd a963 a83c 7d79 a23e
00000010: 28d6 ccbd 2b39 1fbe 2fd3 4cbe 433a 003e
00000020: 1707 a4be 20a8 95be cc54 963e fe2b 253e
00000030: 41fd 083e ece6 02be 97b4 3cbe e69b bc3d
00000040: c86e 59be 7400 d5bd 1a62 513e b6df 1b3e
00000050: d760 dcbd 1c51 2d3e fa07 9bbe c7ff df3c
00000060: 080c ff3d a19a 3e3e ec5e 373e 1ba8 67be
00000070: c1b7 f4bd 261f 31be 615e 8c3e 7a8d 8dbc
00000080: 94c6 293e 5043 9ebe 4393 65bd 9cd5 653e
00000090: 597f 77be 05db 40be c5c4 89be 165e 283e
000000a0: 04d1 98be c861 31be 273a 23bd 5acc fa3c
000000b0: c85a 72be 91eb 6b3e df00 9a3e 3e8e 3c3e
000000c0: 8467 4ebe 280a 1d3e cd87 35be c22b 023d
000000d0: fe37 3abd fd61 563d c1a1 86be ef30 f93d
000000e0: e3a3 e63d c016 bd3e 8684 d43e 64c5 293d
000000f0: 540a 96bd c862 39bd 621a 52be 585b c339
00000100: 523a 523e a229 bdbe 6961 0ebe 11ac 26bd
00000110: 0b7a dc3c 4145 c2bb c7d7 fcba f544 1e3e
00000120: 98db ce3d ef02 cdbd a6f0 003d ad6e 1abd
00000130: 7973 32be f4f6 e0bd 0525 703e b540 69bd
00000140: 2a04 7cbe 5280 2f3d 1cdf 2d3e 9220 febd
00000150: bbff 7bbe b6d4 7cbc 1346 6f3e c435 333e
00000160: 6dfb b2bd 873b 5f3e 2043 453e f7b5 c6bd
00000170: 6318 4f3e de77 5cbc 2020 71bd 3d31 aebd
00000180: 1294 573e 1dc5 1b3e 6ddd f43d 47bd b93c
00000190: 7d59 c33d 1fab aebe 0e94 3c3c 1c60 e73d
000001a0: 8411 8f3e 1ebf 3d3b f6fd 073e 78e5 a23e
000001b0: 4c73 0e3c f60e 2e3d c986 4abd 8edb 1cbe
000001c0: 7e72 d03d a919 1bbd c3f9 babe e2ab 34be
000001d0: 8276 983e 36b7 5a3e f623 063c d13d 0cbe
000001e0: 394e 5abe 0f01 853c d9d4 ebbd c772 383e
000001f0: dc02 a43e b4a9 343e 1d1f a2bd 98f7 93bd
00000200: 2110 85bd 55df c53d 5e29 3d3d 8c49 5a3e
00000210: f091 45bd 6e2a 56bc d3e2 1f3e 22a8 bb3c
00000220: 770d 8cbe 7774 fabd 9b32 33be 8200 6abe
00000230: 94d0 8dbe 86eb f9bb 2af8 38be 2724 21be
00000240: 08ab 19be b921 77bd 1a75 783e a97e 81bd
00000250: 97a5 50be 2072 aa3d 8c39 4ebe 703f 91be
00000260: 0cb0 c23d 26f8 a43b 5dec a63d 5d2f c5bd
00000270: 5bbd 09be 3911 3b3e 739f 413c 0b7c 3cbe
00000280: 0f5f 653d 4cd2 8b3d f2a1 b73d 13c4 5f3d
00000290: 3ad1 4a3e 7802 aabc fec6 84bc 321b 303e
000002a0: ce56 943d fd05 8abc dfb1 75be f479 5e3d
000002b0: 672e 693d c3fd 2b3c fad3 553e 0fb4 693e
000002c0: b160 6cbd cb3c 203e 6da1 44be b3f4 303d
000002d0: 2588 8fbe 953f 7b3e d972 a3bc 2e21 743e
000002e0: c275 043c a741 bebb 23a7 63be 6c0d d5bd
000002f0: aa8e 6c3d 3940 3d3d 48f9 12bd c31b 943e
00000300: 7aea b3bc 914c 4f3e 0a79 823c b49b 5cbb
00000310: 4d9f 793e 5cfe 98bd a9be 2c3e cfe4 eb3d
00000320: dd75 87bd 56c4 02be 5de7 803e 13d9 513e
00000330: 5dd5 553e d35f 02be ee37 7bbe dfc5 50be
00000340: 1b69 adbd d533 05be 7e2a 4fbc 10f6 463e
00000350: 07a7 e4bd b5c2 85be a579 9ebd 4713 8c3d
00000360: 0072 013e 4cf0 d53d 664d 3d3e 125b 033e
00000370: 33c6 543e 6e29 263e 8eaf 9f3d 4bd3 f7bc
00000380: 5754 e93d c7bc 933e d8e2 b4ba 42e6 f73d
00000390: 2a9c 52be debf f6bd b475 b73c 8a57 883e
000003a0: e3c6 a03d 7e47 4fbe 25b6 4cbe 6116 8cbe
000003b0: 09bd 233e 47b1 9ebd ff80 823e aa7d 0abe
000003c0: d870 e4bd 757f 393e 0807 d2bd 8629 183e
000003d0: 539f 5fbe a1c7 9a3d 6a6b 8b3e 1b02 fc3d
000003e0: d248 493d 7fd6 74be 4934 2bbe d0c1 f5bd
000003f0: 4e86 4fbd 8924 d9bd efe7 34be 3129 9c3e
-0.16273147 -0.115695186 0.020555334 0.31733313 -0.100017846 -0.15549152 -0.20002435 0.12522225
-0.3203666 -0.29229832 0.2936157 0.16130063 0.13377859 -0.12783402 -0.18428265 0.09209423
-0.21233666 -0.10400477 0.20447579 0.15222058 -0.10760658 0.16925472 -0.30279523 0.027343644
0.12453467 0.18613674 0.17907304 -0.22622721 -0.11949111 -0.17297038 0.27415755 -0.017279375
0.16579658 -0.3091073 -0.056048643 0.22444767 -0.24169673 -0.1883355 -0.26907936 0.16442141
-0.29846966 -0.17322457 -0.03985038 0.03061502 -0.23667443 0.2303908 0.3007879 0.18413636
-0.20156676 0.15335906 -0.17727585 0.031780012 -0.045463555 0.052339543 -0.26295283 0.121675365
0.11261728 0.3693142 0.41507357 0.041448012 -0.07326189 -0.04526022 -0.20517877 0.00037261355
0.2053006 -0.36945826 -0.13904347 -0.04069144 0.026913663 -0.005928666 -0.0019290381 0.15455993
0.10100478 -0.10010325 0.0314795 -0.037703205 -0.17426862 -0.109846026 0.23451622 -0.056946475
-0.24610963 0.042846985 0.1697964 -0.12408556 -0.24609272 -0.015431574 0.23366575 0.17500979
-0.08739362 0.21800052 0.19263887 -0.09702676 0.20224147 -0.013456313 -0.058868527 -0.08505485
0.21052578 0.15211911 0.11956296 0.022673262 0.09538553 -0.3411493 0.011509908 0.11297628
0.2794305 0.0028953026 0.13280472 0.31815696 0.008694481 0.042494737 -0.049444947 -0.15318128
0.10178088 -0.03786627 -0.36518678 -0.17643693 0.29777914 0.21358952 0.008187285 -0.13695456
-0.21318902 0.016235856 -0.11515207 0.18012534 0.32033432 0.17642862 -0.07916091 -0.07224959
-0.06497217 0.09661738 0.04618203 0.21317118 -0.04823488 -0.013071639 0.1561387 0.02290732
-0.27354023 -0.12229245 -0.17499773 -0.22851756 -0.27698195 -0.0076269535 -0.18063417 -0.15736447
-0.1500665 -0.060334895 0.2426342 -0.06322987 -0.20375668 0.08322549 -0.2013914 -0.2836871
0.095062345 0.0050344644 0.081505515 -0.096281745 -0.1345114 0.18268289 0.011817801 -0.18406694
0.055998858 0.0682722 0.089664355 0.05463035 0.19806376 -0.02075313 -0.016208168 0.17197874
0.07243119 -0.016848559 -0.23993634 0.054315522 0.05692902 0.010497513 0.20881644 0.22822593
-0.0577094 0.1564819 -0.19202204 0.043202113 -0.28033558 0.24535973 -0.019952225 0.23840782
0.008084716 -0.005806166 -0.22231726 -0.10402951 0.057753243 0.046203826 -0.035882264 0.2892743
-0.021962393 0.20244052 0.015926857 -0.0033662142 0.24377175 -0.0747039 0.16869606 0.11518251
-0.066142775 -0.12770209 0.25176516 0.20492963 0.20882173 -0.12731867 -0.24533054 -0.20387982
-0.08467313 -0.13008054 -0.012644408 0.19429803 -0.111646704 -0.26125112 -0.077380456 0.06839614
0.12641144 0.104462236 0.18486556 0.1282771 0.20778732 0.16226742 0.07797156 -0.03025212
0.1139304 0.28854963 -0.0013800515 0.12104465 -0.20567384 -0.120483145 0.022394992 0.26629287
0.07850435 -0.20242116 -0.19991358 -0.27360824 0.1599008 -0.07748657 0.2548904 -0.135245
-0.11154336 0.18115027 -0.10255247 0.1485959 -0.21838121 0.075576074 0.27230388 0.12305089
0.049141712 -0.23909949 -0.16719164 -0.119998574 -0.050665192 -0.10602672 -0.176666 0.30500177

fc_1_Add_B f4 [64]
00000000: 42cc 853d bf5d 663d 9c2e 1cbc 5e5b 7c3d
00000010: fe5b 02bc b737 e9bc 313c 91bc 5d9e 023d
00000020: 0aaa ba3d 262c f63c 6348 2c3c 6df0 42bd
00000030: 03f8 7fbc 195e c7bc df03 18bc b0bb e5bc
00000040: c0a0 1dbd 158d a03d 7746 55bd f355 40bb
00000050: 5e0d 953c 9cb9 cebc c080 843d 844a 193d
00000060: 01e0 a73b b321 82bc 13af fabc f536 773d
00000070: 7339 493d f564 803d 4558 61bc 02f3 0839
00000080: 006a c7bc d9b3 9a3d a8b1 28bd f001 39bc
00000090: aac1 65bd f8c6 793d 2fb6 cc3d b813 36bd
000000a0: 672a 863d 744c 39bd 4d41 0a3d e426 f73c
000000b0: 2eed 2a3d fbdb 893d cd41 ae3b a295 dc3c
000000c0: d4d7 1bbd 1d34 a53c 9120 923c bce6 7c3c
000000d0: 3e47 0f3d 2fec 843d d31e 153d ce1d 3ebc
000000e0: 72e4 4fbd dba1 783d c148 ad3d 09ba 0abd
000000f0: 595f 673d 440f c43c 2baa 6c3d 96fb 613d
0.065331 0.056241747 -0.009532597 0.061610572 -0.007956503 -0.02846895 -0.017728897 0.03188931
0.091144636 0.030050348 0.010515305 -0.04759257 -0.015623095 -0.024336861 -0.009278267 -0.028043598
-0.03848338 0.07839409 -0.052069154 -0.0029348105 0.01819485 -0.02523499 0.064698696 0.03742458
0.005123139 -0.01588521 -0.03060106 0.060355145 0.049127053 0.06269256 -0.013753955 0.00013060498
-0.024342537 0.075538345 -0.04118505 -0.011291966 -0.056092896 0.060980767 0.09995686 -0.0444524
0.06551056 -0.045238927 0.033753682 0.030169912 0.0417301 0.06731411 0.0053179027 0.02692682
-0.038047627 0.020166451 0.017837794 0.015435871 0.03498005 0.06490361 0.03640635 -0.011603786
-0.05075497 0.060701232 0.08461142 -0.033868823 0.056487415 0.02393306 0.057779472 0.05517157

fc_2_MatMul_W f4 [64, 32]
00000000: bb20 1ebe f42a 2abd a22b 19be 2b3f 2abe
00000010: 7cd4 4d3e ead7 8fbd 43f5 afbb 4a9b 43be
00000020: 0f96 75bd 9207 243e 659c ff3d f465 963d
00000030: 7581 81be 68d3 6cbe da47 ea3d c6c6 d83d
00000040: 539e 26be d36f b5ac e5bd 303c e344 b13d
00000050: 7928 f03c 81dc 9d3d 5fa0 6cbe 5df4 4e3e
00000060: 931a 913c e106 1a3e 74e4 1bbe 8705 273e
00000070: af38 663e cf46 953d 4344 b13d 3308 50be
00000080: df09 83be a022 6e3d 509f ba3d bb74 d83d
00000090: 01d9 9f3d a190 c2bd 3d8b 1b3e a918 0d3d
000000a0: c13e 4cbe 84db 483e d571 b63d 4d7c 843e
000000b0: bf9f 47be c156 6cbd 40aa f7bd cf0c 9e3c
000000c0: fa2f df3d e699 21a5 0429 633d 3905 703d
000000d0: bf7a 14be a9fb f83b 0ba6 a2bb ecd9 08be
000000e0: 144a 0f3d 264a b43d fb18 0e3e ba99 e33d
000000f0: 5c26 043e 61c1 563e d82a 1dbe 38a1 373e
00000100: b54e ecbd 1e62 7b3d 3fe1 69bd 1489 7bbd
00000110: 5907 b63c 691d cebd 88c5 1a3e 8dbd 9b3d
00000120: c636 35bd 82cd f5bd ee10 73be b97d 11be
00000130: 3e27 433d 449c b03c 256b 443d 379c 2c3e
00000140: 0315 4fbd 36b2 5932 22b1 5f3d 445e 49be
00000150: b324 f43d b16f 0d3e 9778 413d c6d0 2f3e
00000160: cf97 693e 2483 933d 186d 82bd f493 8a3e
00000170: 0a2f e2bd 0107 863d d33a 78bc 5cd5 b13d
00000180: 3427 15be 57c7 f73d a607 5bbe 0e73 06be
00000190: fcae 20be efbf 66ba 7a0d 013e 4a53 b83d
000001a0: f124 133d 8c34 48bd 0997 553e c7b6 a5bd
000001b0: dd0f 533e 08b2 213e 1362 95bd a4e3 6dbe
000001c0: aeea 94bb 73a9 38b7 8a9f 9f3d 5cfe febc
000001d0: e9f0 f53c cfc8 4bbd c62f 103d 023f f4bc
000001e0: c4a4 573e dcc5 f5bd 7471 913c 57c7 64be
000001f0: a4eb bfbd d565 b83c aadf 1f3c c6ce 0a3e
00000200: 2c01 153e d59f 92bd 2e8c 8e3e fec3 7b3e
00000210: c51e 77bd f953 ceb4 b248 5b3e 7a62 763e
00000220: 903c ed38 6b48 723e 117f 853d 3e42 8c3e
00000230: 0a98 193e d4e4 27be 15ac 0a3d 0281 18be
00000240: a51e 4e3e 8346 a72a b77b 85bd a066 833d
00000250: 0306 1bbe 3937 c4bd 6b31 773d f1c1 983c
00000260: f410 433e 42e1 fa3d 8760 84bd e5e7 7e3e
00000270: 0f94 e9bd a434 5fbd 3337 fe3c a98e b93d
00000280: 80dc 82be b605 063e bb4d 953e 09bf 833c
00000290: 18cf fdbd 7d69 00be 4efa 4a3e 5687 b63c
000002a0: df77 fa3d ebef a83c 457b 22bc ac60 9abd
000002b0: 303f 093c 11f2 8abd 4c20 f43c bde9 e1bd
000002c0: 19fb a53d f759 21b7 0d78 e9bd d4be 68be
000002d0: 70cc 11bd 917b 47be ce92 80be cd9b 3dbe
000002e0: d05a 5a3e 6032 5b3e b19c f93d b1d6 c23d
000002f0: 5480 37bd 4bfd 61be bf06 583e bcb8 6f3e
00000300: 96ad 0c3e d964 3abe 631f 0cbe 1e64 733e
00000310: 5c47 d9bd 3a26 373e 8874 3d3e a6d8 0e3e
00000320: b4e8 e43d f8d0 22be ead9 00be 41bc c33d
00000330: a4b4 153d b300 1a3c 100e 3abc 5ca0 2bbd
00000340: 7c16 e8bd 47f8 e2b9 f650 0f3e 52d5 0b3e
00000350: 286a 61be ec22 733e 0410 ea3d f56a 553e
00000360: e953 083e 1908 83bd f80f 973d 9920 833e
00000370: 3339 ff3d 6afc fabb 5408 73bd fd14 02be
00000380: 385d 40bd 9d81 c2bd fa3b 2abe 4dd3 3a3e
00000390: 27c2 62bd 8ede c9b2 af86 a6bc 3700 413e
000003a0: c17c 29be 1f2a a4bd 965f 72be ac76 a13d
000003b0: a32a f4bd c487 3a3d 77ee 4c3e 6a50 22be
000003c0: c0f4 6bbe 06a5 dda6 20af 68bd c3b6 42be
000003d0: f062 95bd d4ea 2a3e bc91 8dbd c739 2d3e
000003e0: 29ab 0abe 1d2c 2a3e 85c3 d83d 34cc 55be
000003f0: 1926 0e3e 22d5 503e a881 1d3e 17be 1b3c
-0.15442173 -0.04154487 -0.14958051 -0.16625659 0.20100588 -0.07023604 -0.0053698136 -0.19102207
-0.05995756 0.16018513 0.12481002 0.07343665 -0.2529408 -0.2312752 0.11439486 0.10584788
-0.16271333 -5.1567444e-12 0.010787462 0.08655717 0.029316174 0.077080734 -0.23108052 0.20210405
0.017712867 0.15041687 -0.15223867 0.16310702 0.2248256 0.07288896 0.08655598 -0.20315628
-0.2559347 0.05813849 0.09112418 0.105691396 0.07805062 -0.09500242 0.15189834 0.034447346
-0.19945814 0.19614989 0.089084305 0.25876084 -0.19494532 -0.057699922 -0.120930195 0.019293217
0.10897823 -1.4016667e-16 0.055459037 0.05859873 -0.14499949 0.0075983596 -0.0049636415 -0.1336438
0.034982756 0.08803205 0.13876717 0.111133054 0.12905258 0.20972206 -0.15348375 0.17932594
-0.1153845 0.06137287 -0.057099577 -0.061410025 0.0222203 -0.10064203 0.15114415 0.07604513
-0.04424169 -0.12002088 -0.23736927 -0.14208116 0.047644846 0.021558888 0.047953743 0.16856466
-0.050557148 1.2671583e-08 0.054612286 -0.19664866 0.11921062 0.13812138 0.047234144 0.17169484
0.22811817 0.072027475 -0.06368464 0.27066004 -0.11044128 0.06544305 -0.015150744 0.08683273
-0.14565736 0.12098568 -0.21389636 -0.13129827 -0.15691751 -0.0008802404 0.12602797 0.09000261
0.035923902 -0.048878238 0.20858397 -0.08091503 0.2061152 0.1579057 -0.07294097 -0.2323137
-0.0045445776 -1.1006708e-05 0.077941015 -0.031127147 0.030022101 -0.049752053 0.03520181 -0.0298152
0.21058947 -0.12000629 0.017754294 -0.22341667 -0.09371117 0.022509495 0.0097579155 0.1355544
0.14551228 -0.07159392 0.27841324 0.24586484 -0.06033208 -3.8431588e-07 0.2141445 0.24061003
0.00011312321 0.23660438 0.065183766 0.2739429 0.14999405 -0.16395885 0.033855516 -0.14892963
0.20128877 2.9714087e-13 -0.06517737 0.064160585 -0.15139012 -0.095808454 0.060349863 0.018647166
0.19049436 0.12249996 -0.06463724 0.24893148 -0.11405193 -0.05449356 0.03103218 0.090604134
-0.25558853 0.13088116 0.29160866 0.016082304 -0.123930156 -0.1254024 0.19822046 0.02228133
0.12229895 0.020622214 -0.009917085 -0.0753797 0.0083768815 -0.06784452 0.029800557 -0.1103091
0.08104534 -9.617294e-06 -0.11399851 -0.22729045 -0.035595357 -0.1948073 -0.25112003 -0.18516465
0.21323705 0.21405935 0.1218809 0.095136054 -0.044800118 -0.2206928 0.21096323 0.23410314
0.13738093 -0.18202533 -0.13683848 0.2376866 -0.10609314 0.17885676 0.18501484 0.13949832
0.11177197 -0.15900028 -0.12583128 0.09557391 0.036549225 0.009399581 -0.011355892 -0.041900977
-0.113324136 -0.0004329106 0.13995728 0.13655594 -0.22013152 0.2374379 0.11428836 0.20841582
0.13313259 -0.06398029 0.07376093 0.25610808 0.12462082 -0.0076594846 -0.059334114 -0.12703319
-0.0469639 -0.09497378 -0.16624442 0.18244667 -0.05536094 -2.3500686e-08 -0.020327894 0.18847738
-0.16551496 -0.080158465 -0.23669276 0.07883963 -0.11922195 0.045539632 0.20012842 -0.15850988
-0.23042583 -1.5379685e-15 -0.056807637 -0.1901503 -0.072942615 0.16691142 -0.06912562 0.16916572
-0.13541855 0.1661839 0.105841674 -0.20878679 0.1388172 0.20393804 0.15381491 0.00950577

fc_2_Add_B f4 [32]
00000000: af42 e5bc ce0f 09bd ad11 2f3d 3b77 2f3d
00000010: c036 6c3d 7d8f 24bc 685d ddbc 821a 78bc
00000020: bd09 693b dc58 6f3d f2e6 28bd 41bd 163d
00000030: 91ff 82bc 912b b3bd a76d 93bc bab0 883d
00000040: 68cf 00bd 0000 0000 1a17 b7bc 7db8 65bc
00000050: eea1 523d 69d4 343d f2e8 a2bc 4add fabc
00000060: 8b57 30bc 81c3 483d 5e08 5b3d 2bc8 163d
00000070: 302c 553d ef82 59ba bf46 3b3d ee03 e43c
-0.027985899 -0.03346234 0.042741466 0.042838316 0.0576694 -0.010043976 -0.027022079 -0.015143039
0.0035558783 0.058434352 -0.04123587 0.03680158 -0.015991004 -0.08748544 -0.017996622 0.06674333
-0.031447798 0.0 -0.022349883 -0.014021036 0.05142396 0.044147883 -0.019886468 -0.030623097
-0.010763059 0.049014572 0.053474776 0.03681199 0.052044094 -0.00082974037 0.045721766 0.027833905

fc_3_MatMul_W f4 [32, 1]
00000000: 60a2 57be c278 c8bd 76d1 873e d5bb b83d
00000010: 56b9 fe3e 4511 85be b8fd 6ebe 5051 c9be
00000020: a6d2 bdbe d91c 3b3e 8266 98be 9e0b a13e
00000030: 67f5 bebe 94d0 b93e e147 81be 71aa d03e
00000040: de23 f9bd 3468 0230 6db8 3f3c 41dc a2be
00000050: c027 5b3d 31fb a03e a45f 9fbe 4443 85be
00000060: 734a 7abe f738 d03e 2630 713e 402b a23e
00000070: 8419 c33e d58c 35be 421f 1c3e bae3 833d
-0.21058035 -0.09788658 0.26526994 0.09020201 0.49750775 -0.25989738 -0.23338974 -0.3931985
-0.37074775 0.18272723 -0.29765707 0.31454176 -0.37296602 0.36291945 -0.25250152 0.40755036
-0.12165044 4.7441806e-10 0.011701685 -0.31808665 0.053504705 0.31441644 -0.31127656 -0.26027882
-0.24442463 0.4066846 0.23553523 0.31673622 0.38105404 -0.17729504 0.15246299 0.0643992
